…
2021-08-02 13:12:20 [1,0]<stdout>:2021-08-02 21:12:18 | INFO | fairseq.data.multilingual.multilingual_data_manager | /mnt/input/SharedTask/thunder/large_track/data/Filter_v1/split-data-bin80//data-bin0 valid en-zu 1012 examples
2021-08-02 13:12:32 [1,0]<stdout>:2021-08-02 21:12:31 | INFO | fairseq.models.xlmt_decoder_variant | Loading pretrained_deltalm_checkpoint from /mnt/input/SharedTask/thunder/PretrainedModel/deltalm/large-postnorm//model_state_update_300000.th
2021-08-02 13:12:35 [1,0]<stdout>:2021-08-02 21:12:32 | INFO | fairseq_cli.train | XLMTDecoderVariantModel(
2021-08-02 13:12:35 [1,0]<stdout>:  (encoder): XLMTEncoder(
2021-08-02 13:12:35 [1,0]<stdout>:    (dropout_module): FairseqDropout()
2021-08-02 13:12:35 [1,0]<stdout>:    (embed_tokens): Embedding(250104, 1024, padding_idx=1)
2021-08-02 13:12:35 [1,0]<stdout>:    (embed_positions): LearnedPositionalEmbedding(514, 1024, padding_idx=1)
2021-08-02 13:12:35 [1,0]<stdout>:    (layers): ModuleList(
2021-08-02 13:12:35 [1,0]<stdout>:      (0): TransformerEncoderLayer(
2021-08-02 13:12:35 [1,0]<stdout>:        (self_attn): MultiheadAttention(
2021-08-02 13:12:35 [1,0]<stdout>:          (dropout_module): FairseqDropout()
2021-08-02 13:12:35 [1,0]<stdout>:          (k_proj): Linear(in_features=1024, out_features=1024, bias=True)
2021-08-02 13:12:35 [1,0]<stdout>:          (v_proj): Linear(in_features=1024, out_features=1024, bias=True)
2021-08-02 13:12:35 [1,0]<stdout>:          (q_proj): Linear(in_features=1024, out_features=1024, bias=True)
2021-08-02 13:12:35 [1,0]<stdout>:          (out_proj): Linear(in_features=1024, out_features=1024, bias=True)
2021-08-02 13:12:35 [1,0]<stdout>:        )
2021-08-02 13:12:35 [1,0]<stdout>:        (self_attn_layer_norm): FusedLayerNorm(torch.Size([1024]), eps=1e-05, elementwise_affine=True)
2021-08-02 13:12:35 [1,0]<stdout>:        (dropout_module): FairseqDropout()
2021-08-02 13:12:35 [1,0]<stdout>:        (activation_dropout_module): FairseqDropout()
2021-08-02 13:12:35 [1,0]<stdout>:        (fc1): Linear(in_features=1024, out_features=4096, bias=True)
2021-08-02 13:12:35 [1,0]<stdout>:        (fc2): Linear(in_features=4096, out_features=1024, bias=True)
2021-08-02 13:12:35 [1,0]<stdout>:        (final_layer_norm): FusedLayerNorm(torch.Size([1024]), eps=1e-05, elementwise_affine=True)
2021-08-02 13:12:35 [1,0]<stdout>:      )
2021-08-02 13:12:35 [1,0]<stdout>:      (1): TransformerEncoderLayer(
2021-08-02 13:12:35 [1,0]<stdout>:        (self_attn): MultiheadAttention(
2021-08-02 13:12:35 [1,0]<stdout>:          (dropout_module): FairseqDropout()
2021-08-02 13:12:35 [1,0]<stdout>:          (k_proj): Linear(in_features=1024, out_features=1024, bias=True)
2021-08-02 13:12:35 [1,0]<stdout>:          (v_proj): Linear(in_features=1024, out_features=1024, bias=True)
2021-08-02 13:12:35 [1,0]<stdout>:          (q_proj): Linear(in_features=1024, out_features=1024, bias=True)
2021-08-02 13:12:35 [1,0]<stdout>:          (out_proj): Linear(in_features=1024, out_features=1024, bias=True)
2021-08-02 13:12:35 [1,0]<stdout>:        )
2021-08-02 13:12:35 [1,0]<stdout>:        (self_attn_layer_norm): FusedLayerNorm(torch.Size([1024]), eps=1e-05, elementwise_affine=True)
2021-08-02 13:12:35 [1,0]<stdout>:        (dropout_module): FairseqDropout()
2021-08-02 13:12:35 [1,0]<stdout>:        (activation_dropout_module): FairseqDropout()
2021-08-02 13:12:35 [1,0]<stdout>:        (fc1): Linear(in_features=1024, out_features=4096, bias=True)
2021-08-02 13:12:35 [1,0]<stdout>:        (fc2): Linear(in_features=4096, out_features=1024, bias=True)
2021-08-02 13:12:35 [1,0]<stdout>:        (final_layer_norm): FusedLayerNorm(torch.Size([1024]), eps=1e-05, elementwise_affine=True)
2021-08-02 13:12:35 [1,0]<stdout>:      )
2021-08-02 13:12:35 [1,0]<stdout>:      (2): TransformerEncoderLayer(
2021-08-02 13:12:35 [1,0]<stdout>:        (self_attn): MultiheadAttention(
2021-08-02 13:12:35 [1,0]<stdout>:          (dropout_module): FairseqDropout()
2021-08-02 13:12:35 [1,0]<stdout>:          (k_proj): Linear(in_features=1024, out_features=1024, bias=True)
2021-08-02 13:12:35 [1,0]<stdout>:          (v_proj): Linear(in_features=1024, out_features=1024, bias=True)
2021-08-02 13:12:35 [1,0]<stdout>:          (q_proj): Linear(in_features=1024, out_features=1024, bias=True)
2021-08-02 13:12:35 [1,0]<stdout>:          (out_proj): Linear(in_features=1024, out_features=1024, bias=True)
2021-08-02 13:12:35 [1,0]<stdout>:        )
2021-08-02 13:12:35 [1,0]<stdout>:        (self_attn_layer_norm): FusedLayerNorm(torch.Size([1024]), eps=1e-05, elementwise_affine=True)
2021-08-02 13:12:35 [1,0]<stdout>:        (dropout_module): FairseqDropout()
2021-08-02 13:12:35 [1,0]<stdout>:        (activation_dropout_module): FairseqDropout()
2021-08-02 13:12:35 [1,0]<stdout>:        (fc1): Linear(in_features=1024, out_features=4096, bias=True)
2021-08-02 13:12:35 [1,0]<stdout>:        (fc2): Linear(in_features=4096, out_features=1024, bias=True)
2021-08-02 13:12:35 [1,0]<stdout>:        (final_layer_norm): FusedLayerNorm(torch.Size([1024]), eps=1e-05, elementwise_affine=True)
2021-08-02 13:12:35 [1,0]<stdout>:      )
2021-08-02 13:12:35 [1,0]<stdout>:      (3): TransformerEncoderLayer(
2021-08-02 13:12:35 [1,0]<stdout>:        (self_attn): MultiheadAttention(
2021-08-02 13:12:35 [1,0]<stdout>:          (dropout_module): FairseqDropout()
2021-08-02 13:12:35 [1,0]<stdout>:          (k_proj): Linear(in_features=1024, out_features=1024, bias=True)
2021-08-02 13:12:35 [1,0]<stdout>:          (v_proj): Linear(in_features=1024, out_features=1024, bias=True)
2021-08-02 13:12:35 [1,0]<stdout>:          (q_proj): Linear(in_features=1024, out_features=1024, bias=True)
2021-08-02 13:12:35 [1,0]<stdout>:          (out_proj): Linear(in_features=1024, out_features=1024, bias=True)
2021-08-02 13:12:35 [1,0]<stdout>:        )
2021-08-02 13:12:35 [1,0]<stdout>:        (self_attn_layer_norm): FusedLayerNorm(torch.Size([1024]), eps=1e-05, elementwise_affine=True)
2021-08-02 13:12:35 [1,0]<stdout>:        (dropout_module): FairseqDropout()
2021-08-02 13:12:35 [1,0]<stdout>:        (activation_dropout_module): FairseqDropout()
2021-08-02 13:12:35 [1,0]<stdout>:        (fc1): Linear(in_features=1024, out_features=4096, bias=True)
2021-08-02 13:12:35 [1,0]<stdout>:        (fc2): Linear(in_features=4096, out_features=1024, bias=True)
2021-08-02 13:12:35 [1,0]<stdout>:        (final_layer_norm): FusedLayerNorm(torch.Size([1024]), eps=1e-05, elementwise_affine=True)
2021-08-02 13:12:35 [1,0]<stdout>:      )
2021-08-02 13:12:35 [1,0]<stdout>:      (4): TransformerEncoderLayer(
2021-08-02 13:12:35 [1,0]<stdout>:        (self_attn): MultiheadAttention(
2021-08-02 13:12:35 [1,0]<stdout>:          (dropout_module): FairseqDropout()
2021-08-02 13:12:35 [1,0]<stdout>:          (k_proj): Linear(in_features=1024, out_features=1024, bias=True)
2021-08-02 13:12:35 [1,0]<stdout>:          (v_proj): Linear(in_features=1024, out_features=1024, bias=True)[1,0]<stdout>:
2021-08-02 13:12:35 [1,0]<stdout>:          (q_proj): Linear(in_features=1024, out_features=1024, bias=True)
2021-08-02 13:12:35 [1,0]<stdout>:          (out_proj): Linear(in_features=1024, out_features=1024, bias=True)
2021-08-02 13:12:35 [1,0]<stdout>:        )
2021-08-02 13:12:35 [1,0]<stdout>:        (self_attn_layer_norm): FusedLayerNorm(torch.Size([1024]), eps=1e-05, elementwise_affine=True)
2021-08-02 13:12:35 [1,0]<stdout>:        (dropout_module): FairseqDropout()
2021-08-02 13:12:35 [1,0]<stdout>:        (activation_dropout_module): FairseqDropout()
2021-08-02 13:12:35 [1,0]<stdout>:        (fc1): Linear(in_features=1024, out_features=4096, bias=True)
2021-08-02 13:12:35 [1,0]<stdout>:        (fc2): Linear(in_features=4096, out_features=1024, bias=True)
2021-08-02 13:12:35 [1,0]<stdout>:        (final_layer_norm): FusedLayerNorm(torch.Size([1024]), eps=1e-05, elementwise_affine=True)
2021-08-02 13:12:35 [1,0]<stdout>:      )
2021-08-02 13:12:35 [1,0]<stdout>:      (5): TransformerEncoderLayer(
2021-08-02 13:12:35 [1,0]<stdout>:        (self_attn): MultiheadAttention(
2021-08-02 13:12:35 [1,0]<stdout>:          (dropout_module): FairseqDropout()
2021-08-02 13:12:35 [1,0]<stdout>:          (k_proj): Linear(in_features=1024, out_features=1024, bias=True)
2021-08-02 13:12:35 [1,0]<stdout>:          (v_proj): Linear(in_features=1024, out_features=1024, bias=True)
2021-08-02 13:12:35 [1,0]<stdout>:          (q_proj): Linear(in_features=1024, out_features=1024, bias=True)
2021-08-02 13:12:35 [1,0]<stdout>:          (out_proj): Linear(in_features=1024, out_features=1024, bias=True)
2021-08-02 13:12:35 [1,0]<stdout>:        )
2021-08-02 13:12:35 [1,0]<stdout>:        (self_attn_layer_norm): FusedLayerNorm(torch.Size([1024]), eps=1e-05, elementwise_affine=True)
2021-08-02 13:12:35 [1,0]<stdout>:        (dropout_module): FairseqDropout()
2021-08-02 13:12:35 [1,0]<stdout>:        (activation_dropout_module): FairseqDropout()
2021-08-02 13:12:35 [1,0]<stdout>:        (fc1): Linear(in_features=1024, out_features=4096, bias=True)
2021-08-02 13:12:35 [1,0]<stdout>:        (fc2): Linear(in_features=4096, out_features=1024, bias=True)
2021-08-02 13:12:35 [1,0]<stdout>:        (final_layer_norm): FusedLayerNorm(torch.Size([1024]), eps=1e-05, elementwise_affine=True)
2021-08-02 13:12:35 [1,0]<stdout>:      )
2021-08-02 13:12:35 [1,0]<stdout>:      (6): TransformerEncoderLayer(
2021-08-02 13:12:35 [1,0]<stdout>:        (self_attn): MultiheadAttention(
2021-08-02 13:12:35 [1,0]<stdout>:          (dropout_module): FairseqDropout()
2021-08-02 13:12:35 [1,0]<stdout>:          (k_proj): Linear(in_features=1024, out_features=1024, bias=True)
2021-08-02 13:12:35 [1,0]<stdout>:          (v_proj): Linear(in_features=1024, out_features=1024, bias=True)
2021-08-02 13:12:35 [1,0]<stdout>:          (q_proj): Linear(in_features=1024, out_features=1024, bias=True)
2021-08-02 13:12:35 [1,0]<stdout>:          (out_proj): Linear(in_features=1024, out_features=1024, bias=True)
2021-08-02 13:12:35 [1,0]<stdout>:        )
2021-08-02 13:12:35 [1,0]<stdout>:        (self_attn_layer_norm): FusedLayerNorm(torch.Size([1024]), eps=1e-05, elementwise_affine=True)
2021-08-02 13:12:35 [1,0]<stdout>:        (dropout_module): FairseqDropout()
2021-08-02 13:12:35 [1,0]<stdout>:        (activation_dropout_module): FairseqDropout()
2021-08-02 13:12:35 [1,0]<stdout>:        (fc1): Linear(in_features=1024, out_features=4096, bias=True)
2021-08-02 13:12:35 [1,0]<stdout>:        (fc2): Linear(in_features=4096, out_features=1024, bias=True)
2021-08-02 13:12:35 [1,0]<stdout>:        (final_layer_norm): FusedLayerNorm(torch.Size([1024]), eps=1e-05, elementwise_affine=True)
2021-08-02 13:12:35 [1,0]<stdout>:      )
2021-08-02 13:12:35 [1,0]<stdout>:      (7): TransformerEncoderLayer(
2021-08-02 13:12:35 [1,0]<stdout>:        (self_attn): MultiheadAttention(
2021-08-02 13:12:35 [1,0]<stdout>:          (dropout_module): FairseqDropout()
2021-08-02 13:12:35 [1,0]<stdout>:          (k_proj): Linear(in_features=1024, out_features=1024, bias=True)
2021-08-02 13:12:35 [1,0]<stdout>:          (v_proj): Linear(in_features=1024, out_features=1024, bias=True)
2021-08-02 13:12:35 [1,0]<stdout>:          (q_proj): Linear(in_features=1024, out_features=1024, bias=True)
2021-08-02 13:12:35 [1,0]<stdout>:          (out_proj): Linear(in_features=1024, out_features=1024, bias=True)
2021-08-02 13:12:35 [1,0]<stdout>:        )
2021-08-02 13:12:35 [1,0]<stdout>:        (self_attn_layer_norm): FusedLayerNorm(torch.Size([1024]), eps=1e-05, elementwise_affine=True)
2021-08-02 13:12:35 [1,0]<stdout>:        (dropout_module): FairseqDropout()
2021-08-02 13:12:35 [1,0]<stdout>:        (activation_dropout_module): FairseqDropout()
2021-08-02 13:12:35 [1,0]<stdout>:        (fc1): Linear(in_features=1024, out_features=4096, bias=True)
2021-08-02 13:12:35 [1,0]<stdout>:        (fc2): Linear(in_features=4096, out_features=1024, bias=True)
2021-08-02 13:12:35 [1,0]<stdout>:        (final_layer_norm): FusedLayerNorm(torch.Size([1024]), eps=1e-05, elementwise_affine=True)
2021-08-02 13:12:35 [1,0]<stdout>:      )
2021-08-02 13:12:35 [1,0]<stdout>:      (8): TransformerEncoderLayer(
2021-08-02 13:12:35 [1,0]<stdout>:        (self_attn): MultiheadAttention(
2021-08-02 13:12:35 [1,0]<stdout>:          (dropout_module): FairseqDropout()
2021-08-02 13:12:35 [1,0]<stdout>:          (k_proj): Linear(in_features=1024, out_features=1024, bias=True)
2021-08-02 13:12:35 [1,0]<stdout>:          (v_proj): Linear(in_features=1024, out_features=1024, bias=True)
2021-08-02 13:12:35 [1,0]<stdout>:          (q_proj): Linear(in_features=1024, out_features=1024, bias=True)
2021-08-02 13:12:35 [1,0]<stdout>:          (out_proj): Linear(in_features=1024, out_features=1024, bias=True)
2021-08-02 13:12:35 [1,0]<stdout>:        )
2021-08-02 13:12:35 [1,0]<stdout>:        (self_attn_layer_norm): FusedLayerNorm(torch.Size([1024]), eps=1e-05, elementwise_affine=True)
2021-08-02 13:12:35 [1,0]<stdout>:        (dropout_module): FairseqDropout()
2021-08-02 13:12:35 [1,0]<stdout>:        (activation_dropout_module): FairseqDropout()
2021-08-02 13:12:35 [1,0]<stdout>:        (fc1): Linear(in_features=1024, out_features=4096, bias=True)
2021-08-02 13:12:35 [1,0]<stdout>:        (fc2): Linear(in_features=4096, out_features=1024, bias=True)
2021-08-02 13:12:35 [1,0]<stdout>:        (final_layer_norm): FusedLayerNorm(torch.Size([1024]), eps=1[1,0]<stdout>:e-[1,0]<stdout>:05, elementwise_affine=True)
2021-08-02 13:12:35 [1,0]<stdout>:      )
2021-08-02 13:12:35 [1,0]<stdout>:      (9): TransformerEncoderLayer(
2021-08-02 13:12:35 [1,0]<stdout>:        (self_attn): MultiheadAttention(
2021-08-02 13:12:35 [1,0]<stdout>:          (dropout_module): FairseqDropout()
2021-08-02 13:12:35 [1,0]<stdout>:          (k_proj): Linear(in_features=1024, out_features=1024, bias=True)
2021-08-02 13:12:35 [1,0]<stdout>:          (v_proj): Linear(in_features=1024, out_features=1024, bias=True)
2021-08-02 13:12:35 [1,0]<stdout>:          (q_proj): Linear(in_features=1024, out_features=1024, bias=True)
2021-08-02 13:12:35 [1,0]<stdout>:          (out_proj): Linear(in_features=1024, out_features=1024, bias=True)
2021-08-02 13:12:35 [1,0]<stdout>:        )
2021-08-02 13:12:35 [1,0]<stdout>:        (self_attn_layer_norm): FusedLayerNorm(torch.Size([1024]), eps=1e-05, elementwise_affine=True)
2021-08-02 13:12:35 [1,0]<stdout>:        (dropout_module): FairseqDropout()
2021-08-02 13:12:35 [1,0]<stdout>:        (activation_dropout_module): FairseqDropout()
2021-08-02 13:12:35 [1,0]<stdout>:        (fc1): Linear(in_features=1024, out_features=4096, bias=True)
2021-08-02 13:12:35 [1,0]<stdout>:        (fc2): Linear(in_features=4096, out_features=1024, bias=True)
2021-08-02 13:12:35 [1,0]<stdout>:        (final_layer_norm): FusedLayerNorm(torch.Size([1024]), eps=1e-05, elementwise_affine=True)
2021-08-02 13:12:35 [1,0]<stdout>:      )
2021-08-02 13:12:35 [1,0]<stdout>:      (10): TransformerEncoderLayer(
2021-08-02 13:12:35 [1,0]<stdout>:        (self_attn): MultiheadAttention(
2021-08-02 13:12:35 [1,0]<stdout>:          (dropout_module): FairseqDropout()
2021-08-02 13:12:35 [1,0]<stdout>:          (k_proj): Linear(in_features=1024, out_features=1024, bias=True)
2021-08-02 13:12:35 [1,0]<stdout>:          (v_proj): Linear(in_features=1024, out_features=1024, bias=True)
2021-08-02 13:12:35 [1,0]<stdout>:          (q_proj): Linear(in_features=1024, out_features=1024, bias=True)
2021-08-02 13:12:35 [1,0]<stdout>:          (out_proj): Linear(in_features=1024, out_features=1024, bias=True)
2021-08-02 13:12:35 [1,0]<stdout>:        )
2021-08-02 13:12:35 [1,0]<stdout>:        (self_attn_layer_norm): FusedLayerNorm(torch.Size([1024]), eps=1e-05, elementwise_affine=True)
2021-08-02 13:12:35 [1,0]<stdout>:        (dropout_module): FairseqDropout()
2021-08-02 13:12:35 [1,0]<stdout>:        (activation_dropout_module): FairseqDropout()
2021-08-02 13:12:35 [1,0]<stdout>:        (fc1): Linear(in_features=1024, out_features=4096, bias=True)
2021-08-02 13:12:35 [1,0]<stdout>:        (fc2): Linear(in_features=4096, out_features=1024, bias=True)
2021-08-02 13:12:35 [1,0]<stdout>:        (final_layer_norm): FusedLayerNorm(torch.Size([1024]), eps=1e-05, elementwise_affine=True)
2021-08-02 13:12:35 [1,0]<stdout>:      )
2021-08-02 13:12:35 [1,0]<stdout>:      (11): TransformerEncoderLayer(
2021-08-02 13:12:35 [1,0]<stdout>:        (self_attn): MultiheadAttention(
2021-08-02 13:12:35 [1,0]<stdout>:          (dropout_module): FairseqDropout()
2021-08-02 13:12:35 [1,0]<stdout>:          (k_proj): Linear(in_features=1024, out_features=1024, bias=True)
2021-08-02 13:12:35 [1,0]<stdout>:          (v_proj): Linear(in_features=1024, out_features=1024, bias=True)
2021-08-02 13:12:35 [1,0]<stdout>:          (q_proj): Linear(in_features=1024, out_features=1024, bias=True)
2021-08-02 13:12:35 [1,0]<stdout>:          (out_proj): Linear(in_features=1024, out_features=1024, bias=True)
2021-08-02 13:12:35 [1,0]<stdout>:        )
2021-08-02 13:12:35 [1,0]<stdout>:        (self_attn_layer_norm): FusedLayerNorm(torch.Size([1024]), eps=1e-05, elementwise_affine=True)
2021-08-02 13:12:35 [1,0]<stdout>:        (dropout_module): FairseqDropout()
2021-08-02 13:12:35 [1,0]<stdout>:        (activation_dropout_module): FairseqDropout()
2021-08-02 13:12:35 [1,0]<stdout>:        (fc1): Linear(in_features=1024, out_features=4096, bias=True)
2021-08-02 13:12:35 [1,0]<stdout>:        (fc2): Linear(in_features=4096, out_features=1024, bias=True)
2021-08-02 13:12:35 [1,0]<stdout>:        (final_layer_norm): FusedLayerNorm(torch.Size([1024]), eps=1e-05, elementwise_affine=True)
2021-08-02 13:12:35 [1,0]<stdout>:      )
2021-08-02 13:12:35 [1,0]<stdout>:      (12): TransformerEncoderLayer(
2021-08-02 13:12:35 [1,0]<stdout>:        (self_attn): MultiheadAttention(
2021-08-02 13:12:35 [1,0]<stdout>:          (dropout_module): FairseqDropout()
2021-08-02 13:12:35 [1,0]<stdout>:          (k_proj): Linear(in_features=1024, out_features=1024, bias=True)
2021-08-02 13:12:35 [1,0]<stdout>:          (v_proj): Linear(in_features=1024, out_features=1024, bias=True)
2021-08-02 13:12:35 [1,0]<stdout>:          (q_proj): Linear(in_features=1024, out_features=1024, bias=True)
2021-08-02 13:12:35 [1,0]<stdout>:          (out_proj): Linear(in_features=1024, out_features=1024, bias=True)
2021-08-02 13:12:35 [1,0]<stdout>:        )
2021-08-02 13:12:35 [1,0]<stdout>:        (self_attn_layer_norm): FusedLayerNorm(torch.Size([1024]), eps=1e-05, elementwise_affine=True)
2021-08-02 13:12:35 [1,0]<stdout>:        (dropout_module): FairseqDropout()
2021-08-02 13:12:35 [1,0]<stdout>:        (activation_dropout_module): FairseqDropout()
2021-08-02 13:12:35 [1,0]<stdout>:        (fc1): Linear(in_features=1024, out_features=4096, bias=True)
2021-08-02 13:12:35 [1,0]<stdout>:        (fc2): Linear(in_features=4096, out_features=1024, bias=True)
2021-08-02 13:12:35 [1,0]<stdout>:        (final_layer_norm): FusedLayerNorm(torch.Size([1024]), eps=1e-05, elementwise_affine=True)
2021-08-02 13:12:35 [1,0]<stdout>:      )
2021-08-02 13:12:35 [1,0]<stdout>:      (13): TransformerEncoderLayer(
2021-08-02 13:12:35 [1,0]<stdout>:        (self_attn): MultiheadAttention(
2021-08-02 13:12:35 [1,0]<stdout>:          (dropout_module): FairseqDropout()
2021-08-02 13:12:35 [1,0]<stdout>:          (k_proj): Linear(in_features=1024, out_features=1024, bias=True)
2021-08-02 13:12:35 [1,0]<stdout>:          (v_proj): Linear(in_features=1024, out_features=1024, bias=True)
2021-08-02 13:12:35 [1,0]<stdout>:          (q_proj): Linear(in_features=1024, out_features=1024, bias=True)
2021-08-02 13:12:35 [1,0]<stdout>:          (out_proj): Linear(in_features=1024, out_features=1024, bias=True)
2021-08-02 13:12:35 [1,0]<stdout>:        )
2021-08-02 13:12:35 [1,0]<stdout>:        (self_attn_layer_norm): FusedLayerNorm(torch.Size([1024]), eps=1e-05, elementwise_affine[1,0]<stdout>:=True)
2021-08-02 13:12:35 [1,0]<stdout>:        (dropout_module): FairseqDropout()
2021-08-02 13:12:35 [1,0]<stdout>:        (activation_dropout_module): FairseqDropout()
2021-08-02 13:12:35 [1,0]<stdout>:        (fc1): Linear(in_features=1024, out_features=4096, bias=True)
2021-08-02 13:12:35 [1,0]<stdout>:        (fc2): Linear(in_features=4096, out_features=1024, bias=True)
2021-08-02 13:12:35 [1,0]<stdout>:        (final_layer_norm): FusedLayerNorm(torch.Size([1024]), eps=1e-05, elementwise_affine=True)
2021-08-02 13:12:35 [1,0]<stdout>:      )
2021-08-02 13:12:35 [1,0]<stdout>:      (14): TransformerEncoderLayer(
2021-08-02 13:12:35 [1,0]<stdout>:        (self_attn): MultiheadAttention(
2021-08-02 13:12:35 [1,0]<stdout>:          (dropout_module): FairseqDropout()
2021-08-02 13:12:35 [1,0]<stdout>:          (k_proj): Linear(in_features=1024, out_features=1024, bias=True)
2021-08-02 13:12:35 [1,0]<stdout>:          (v_proj): Linear(in_features=1024, out_features=1024, bias=True)
2021-08-02 13:12:35 [1,0]<stdout>:          (q_proj): Linear(in_features=1024, out_features=1024, bias=True)
2021-08-02 13:12:35 [1,0]<stdout>:          (out_proj): Linear(in_features=1024, out_features=1024, bias=True)
2021-08-02 13:12:35 [1,0]<stdout>:        )
2021-08-02 13:12:35 [1,0]<stdout>:        (self_attn_layer_norm): FusedLayerNorm(torch.Size([1024]), eps=1e-05, elementwise_affine=True)
2021-08-02 13:12:35 [1,0]<stdout>:        (dropout_module): FairseqDropout()
2021-08-02 13:12:35 [1,0]<stdout>:        (activation_dropout_module): FairseqDropout()
2021-08-02 13:12:35 [1,0]<stdout>:        (fc1): Linear(in_features=1024, out_features=4096, bias=True)
2021-08-02 13:12:35 [1,0]<stdout>:        (fc2): Linear(in_features=4096, out_features=1024, bias=True)
2021-08-02 13:12:35 [1,0]<stdout>:        (final_layer_norm): FusedLayerNorm(torch.Size([1024]), eps=1e-05, elementwise_affine=True)
2021-08-02 13:12:35 [1,0]<stdout>:      )
2021-08-02 13:12:35 [1,0]<stdout>:      (15): TransformerEncoderLayer(
2021-08-02 13:12:35 [1,0]<stdout>:        (self_attn): MultiheadAttention(
2021-08-02 13:12:35 [1,0]<stdout>:          (dropout_module): FairseqDropout()
2021-08-02 13:12:35 [1,0]<stdout>:          (k_proj): Linear(in_features=1024, out_features=1024, bias=True)
2021-08-02 13:12:35 [1,0]<stdout>:          (v_proj): Linear(in_features=1024, out_features=1024, bias=True)
2021-08-02 13:12:35 [1,0]<stdout>:          (q_proj): Linear(in_features=1024, out_features=1024, bias=True)
2021-08-02 13:12:35 [1,0]<stdout>:          (out_proj): Linear(in_features=1024, out_features=1024, bias=True)
2021-08-02 13:12:35 [1,0]<stdout>:        )
2021-08-02 13:12:35 [1,0]<stdout>:        (self_attn_layer_norm): FusedLayerNorm(torch.Size([1024]), eps=1e-05, elementwise_affine=True)
2021-08-02 13:12:35 [1,0]<stdout>:        (dropout_module): FairseqDropout()
2021-08-02 13:12:35 [1,0]<stdout>:        (activation_dropout_module): FairseqDropout()
2021-08-02 13:12:35 [1,0]<stdout>:        (fc1): Linear(in_features=1024, out_features=4096, bias=True)
2021-08-02 13:12:35 [1,0]<stdout>:        (fc2): Linear(in_features=4096, out_features=1024, bias=True)
2021-08-02 13:12:35 [1,0]<stdout>:        (final_layer_norm): FusedLayerNorm(torch.Size([1024]), eps=1e-05, elementwise_affine=True)
2021-08-02 13:12:35 [1,0]<stdout>:      )
2021-08-02 13:12:35 [1,0]<stdout>:      (16): TransformerEncoderLayer(
2021-08-02 13:12:35 [1,0]<stdout>:        (self_attn): MultiheadAttention(
2021-08-02 13:12:35 [1,0]<stdout>:          (dropout_module): FairseqDropout()
2021-08-02 13:12:35 [1,0]<stdout>:          (k_proj): Linear(in_features=1024, out_features=1024, bias=True)
2021-08-02 13:12:35 [1,0]<stdout>:          (v_proj): Linear(in_features=1024, out_features=1024, bias=True)
2021-08-02 13:12:35 [1,0]<stdout>:          (q_proj): Linear(in_features=1024, out_features=1024, bias=True)
2021-08-02 13:12:35 [1,0]<stdout>:          (out_proj): Linear(in_features=1024, out_features=1024, bias=True)
2021-08-02 13:12:35 [1,0]<stdout>:        )
2021-08-02 13:12:35 [1,0]<stdout>:        (self_attn_layer_norm): FusedLayerNorm(torch.Size([1024]), eps=1e-05, elementwise_affine=True)
2021-08-02 13:12:35 [1,0]<stdout>:        (dropout_module): FairseqDropout()
2021-08-02 13:12:35 [1,0]<stdout>:        (activation_dropout_module): FairseqDropout()
2021-08-02 13:12:35 [1,0]<stdout>:        (fc1): Linear(in_features=1024, out_features=4096, bias=True)
2021-08-02 13:12:35 [1,0]<stdout>:        (fc2): Linear(in_features=4096, out_features=1024, bias=True)
2021-08-02 13:12:35 [1,0]<stdout>:        (final_layer_norm): FusedLayerNorm(torch.Size([1024]), eps=1e-05, elementwise_affine=True)
2021-08-02 13:12:35 [1,0]<stdout>:      )
2021-08-02 13:12:35 [1,0]<stdout>:      (17): TransformerEncoderLayer(
2021-08-02 13:12:35 [1,0]<stdout>:        (self_attn): MultiheadAttention(
2021-08-02 13:12:35 [1,0]<stdout>:          (dropout_module): FairseqDropout()
2021-08-02 13:12:35 [1,0]<stdout>:          (k_proj): Linear(in_features=1024, out_features=1024, bias=True)
2021-08-02 13:12:35 [1,0]<stdout>:          (v_proj): Linear(in_features=1024, out_features=1024, bias=True)
2021-08-02 13:12:35 [1,0]<stdout>:          (q_proj): Linear(in_features=1024, out_features=1024, bias=True)
2021-08-02 13:12:35 [1,0]<stdout>:          (out_proj): Linear(in_features=1024, out_features=1024, bias=True)
2021-08-02 13:12:35 [1,0]<stdout>:        )
2021-08-02 13:12:35 [1,0]<stdout>:        (self_attn_layer_norm): FusedLayerNorm(torch.Size([1024]), eps=1e-05, elementwise_affine=True)
2021-08-02 13:12:35 [1,0]<stdout>:        (dropout_module): FairseqDropout()
2021-08-02 13:12:35 [1,0]<stdout>:        (activation_dropout_module): FairseqDropout()
2021-08-02 13:12:35 [1,0]<stdout>:        (fc1): Linear(in_features=1024, out_features=4096, bias=True)
2021-08-02 13:12:35 [1,0]<stdout>:        (fc2): Linear(in_features=4096, out_features=1024, bias=True)
2021-08-02 13:12:35 [1,0]<stdout>:        (final_layer_norm): FusedLayerNorm(torch.Size([1024]), eps=1e-05, elementwise_affine=True)
2021-08-02 13:12:35 [1,0]<stdout>:      )
2021-08-02 13:12:35 [1,0]<stdout>:      (18): TransformerEncoderLayer(
2021-08-02 13:12:35 [1,0]<stdout>:        (self_attn): MultiheadAttention(
2021-08-02 13:12:35 [1,0]<stdout>:          (dropout_module): FairseqDropout()
2021-08-02 13:12:35 [1,0]<stdout>:          (k_proj): Linear(in_features=1024, out_features=1024, bias=True)
2021-08-02 13:12:35 [1,0]<stdout>:          (v_proj)[1,0]<stdout>:: [1,0]<stdout>:Linear(in_features=1024, out_features=1024, bias=True)
2021-08-02 13:12:35 [1,0]<stdout>:          (q_proj): Linear(in_features=1024, out_features=1024, bias=True)
2021-08-02 13:12:35 [1,0]<stdout>:          (out_proj): Linear(in_features=1024, out_features=1024, bias=True)
2021-08-02 13:12:35 [1,0]<stdout>:        )
2021-08-02 13:12:35 [1,0]<stdout>:        (self_attn_layer_norm): FusedLayerNorm(torch.Size([1024]), eps=1e-05, elementwise_affine=True)
2021-08-02 13:12:35 [1,0]<stdout>:        (dropout_module): FairseqDropout()
2021-08-02 13:12:35 [1,0]<stdout>:        (activation_dropout_module): FairseqDropout()
2021-08-02 13:12:35 [1,0]<stdout>:        (fc1): Linear(in_features=1024, out_features=4096, bias=True)
2021-08-02 13:12:35 [1,0]<stdout>:        (fc2): Linear(in_features=4096, out_features=1024, bias=True)
2021-08-02 13:12:35 [1,0]<stdout>:        (final_layer_norm): FusedLayerNorm(torch.Size([1024]), eps=1e-05, elementwise_affine=True)
2021-08-02 13:12:35 [1,0]<stdout>:      )
2021-08-02 13:12:35 [1,0]<stdout>:      (19): TransformerEncoderLayer(
2021-08-02 13:12:35 [1,0]<stdout>:        (self_attn): MultiheadAttention(
2021-08-02 13:12:35 [1,0]<stdout>:          (dropout_module): FairseqDropout()
2021-08-02 13:12:35 [1,0]<stdout>:          (k_proj): Linear(in_features=1024, out_features=1024, bias=True)
2021-08-02 13:12:35 [1,0]<stdout>:          (v_proj): Linear(in_features=1024, out_features=1024, bias=True)
2021-08-02 13:12:35 [1,0]<stdout>:          (q_proj): Linear(in_features=1024, out_features=1024, bias=True)
2021-08-02 13:12:35 [1,0]<stdout>:          (out_proj): Linear(in_features=1024, out_features=1024, bias=True)
2021-08-02 13:12:35 [1,0]<stdout>:        )
2021-08-02 13:12:35 [1,0]<stdout>:        (self_attn_layer_norm): FusedLayerNorm(torch.Size([1024]), eps=1e-05, elementwise_affine=True)
2021-08-02 13:12:35 [1,0]<stdout>:        (dropout_module): FairseqDropout()
2021-08-02 13:12:35 [1,0]<stdout>:        (activation_dropout_module): FairseqDropout()
2021-08-02 13:12:35 [1,0]<stdout>:        (fc1): Linear(in_features=1024, out_features=4096, bias=True)
2021-08-02 13:12:35 [1,0]<stdout>:        (fc2): Linear(in_features=4096, out_features=1024, bias=True)
2021-08-02 13:12:35 [1,0]<stdout>:        (final_layer_norm): FusedLayerNorm(torch.Size([1024]), eps=1e-05, elementwise_affine=True)
2021-08-02 13:12:35 [1,0]<stdout>:      )
2021-08-02 13:12:35 [1,0]<stdout>:      (20): TransformerEncoderLayer(
2021-08-02 13:12:35 [1,0]<stdout>:        (self_attn): MultiheadAttention(
2021-08-02 13:12:35 [1,0]<stdout>:          (dropout_module): FairseqDropout()
2021-08-02 13:12:35 [1,0]<stdout>:          (k_proj): Linear(in_features=1024, out_features=1024, bias=True)
2021-08-02 13:12:35 [1,0]<stdout>:          (v_proj): Linear(in_features=1024, out_features=1024, bias=True)
2021-08-02 13:12:35 [1,0]<stdout>:          (q_proj): Linear(in_features=1024, out_features=1024, bias=True)
2021-08-02 13:12:35 [1,0]<stdout>:          (out_proj): Linear(in_features=1024, out_features=1024, bias=True)
2021-08-02 13:12:35 [1,0]<stdout>:        )
2021-08-02 13:12:35 [1,0]<stdout>:        (self_attn_layer_norm): FusedLayerNorm(torch.Size([1024]), eps=1e-05, elementwise_affine=True)
2021-08-02 13:12:35 [1,0]<stdout>:        (dropout_module): FairseqDropout()
2021-08-02 13:12:35 [1,0]<stdout>:        (activation_dropout_module): FairseqDropout()
2021-08-02 13:12:35 [1,0]<stdout>:        (fc1): Linear(in_features=1024, out_features=4096, bias=True)
2021-08-02 13:12:35 [1,0]<stdout>:        (fc2): Linear(in_features=4096, out_features=1024, bias=True)
2021-08-02 13:12:35 [1,0]<stdout>:        (final_layer_norm): FusedLayerNorm(torch.Size([1024]), eps=1e-05, elementwise_affine=True)
2021-08-02 13:12:35 [1,0]<stdout>:      )
2021-08-02 13:12:35 [1,0]<stdout>:      (21): TransformerEncoderLayer(
2021-08-02 13:12:35 [1,0]<stdout>:        (self_attn): MultiheadAttention(
2021-08-02 13:12:35 [1,0]<stdout>:          (dropout_module): FairseqDropout()
2021-08-02 13:12:35 [1,0]<stdout>:          (k_proj): Linear(in_features=1024, out_features=1024, bias=True)
2021-08-02 13:12:35 [1,0]<stdout>:          (v_proj): Linear(in_features=1024, out_features=1024, bias=True)
2021-08-02 13:12:35 [1,0]<stdout>:          (q_proj): Linear(in_features=1024, out_features=1024, bias=True)
2021-08-02 13:12:35 [1,0]<stdout>:          (out_proj): Linear(in_features=1024, out_features=1024, bias=True)
2021-08-02 13:12:35 [1,0]<stdout>:        )
2021-08-02 13:12:35 [1,0]<stdout>:        (self_attn_layer_norm): FusedLayerNorm(torch.Size([1024]), eps=1e-05, elementwise_affine=True)
2021-08-02 13:12:35 [1,0]<stdout>:        (dropout_module): FairseqDropout()
2021-08-02 13:12:35 [1,0]<stdout>:        (activation_dropout_module): FairseqDropout()
2021-08-02 13:12:35 [1,0]<stdout>:        (fc1): Linear(in_features=1024, out_features=4096, bias=True)
2021-08-02 13:12:35 [1,0]<stdout>:        (fc2): Linear(in_features=4096, out_features=1024, bias=True)
2021-08-02 13:12:35 [1,0]<stdout>:        (final_layer_norm): FusedLayerNorm(torch.Size([1024]), eps=1e-05, elementwise_affine=True)
2021-08-02 13:12:35 [1,0]<stdout>:      )
2021-08-02 13:12:35 [1,0]<stdout>:      (22): TransformerEncoderLayer(
2021-08-02 13:12:35 [1,0]<stdout>:        (self_attn): MultiheadAttention(
2021-08-02 13:12:35 [1,0]<stdout>:          (dropout_module): FairseqDropout()
2021-08-02 13:12:35 [1,0]<stdout>:          (k_proj): Linear(in_features=1024, out_features=1024, bias=True)
2021-08-02 13:12:35 [1,0]<stdout>:          (v_proj): Linear(in_features=1024, out_features=1024, bias=True)
2021-08-02 13:12:35 [1,0]<stdout>:          (q_proj): Linear(in_features=1024, out_features=1024, bias=True)
2021-08-02 13:12:35 [1,0]<stdout>:          (out_proj): Linear(in_features=1024, out_features=1024, bias=True)
2021-08-02 13:12:35 [1,0]<stdout>:        )
2021-08-02 13:12:35 [1,0]<stdout>:        (self_attn_layer_norm): FusedLayerNorm(torch.Size([1024]), eps=1e-05, elementwise_affine=True)
2021-08-02 13:12:35 [1,0]<stdout>:        (dropout_module): FairseqDropout()
2021-08-02 13:12:35 [1,0]<stdout>:        (activation_dropout_module): FairseqDropout()
2021-08-02 13:12:35 [1,0]<stdout>:        (fc1): Linear(in_features=1024, out_features=4096, bias=True)
2021-08-02 13:12:35 [1,0]<stdout>:        (fc2): Linear(in_features=4096, out_features=1024, bias=True)
2021-08-02 13:12:35 [1,0]<stdout>:        (f[1,0]<stdout>:inal_layer_norm): FusedLayerNorm(torch.Size([1024]), eps=1e-05, elementwise_affine=True)
2021-08-02 13:12:35 [1,0]<stdout>:      )
2021-08-02 13:12:35 [1,0]<stdout>:      (23): TransformerEncoderLayer(
2021-08-02 13:12:35 [1,0]<stdout>:        (self_attn): MultiheadAttention(
2021-08-02 13:12:35 [1,0]<stdout>:          (dropout_module): FairseqDropout()
2021-08-02 13:12:35 [1,0]<stdout>:          (k_proj): Linear(in_features=1024, out_features=1024, bias=True)
2021-08-02 13:12:35 [1,0]<stdout>:          (v_proj): Linear(in_features=1024, out_features=1024, bias=True)
2021-08-02 13:12:35 [1,0]<stdout>:          (q_proj): Linear(in_features=1024, out_features=1024, bias=True)
2021-08-02 13:12:35 [1,0]<stdout>:          (out_proj): Linear(in_features=1024, out_features=1024, bias=True)
2021-08-02 13:12:35 [1,0]<stdout>:        )
2021-08-02 13:12:35 [1,0]<stdout>:        (self_attn_layer_norm): FusedLayerNorm(torch.Size([1024]), eps=1e-05, elementwise_affine=True)
2021-08-02 13:12:35 [1,0]<stdout>:        (dropout_module): FairseqDropout()
2021-08-02 13:12:35 [1,0]<stdout>:        (activation_dropout_module): FairseqDropout()
2021-08-02 13:12:35 [1,0]<stdout>:        (fc1): Linear(in_features=1024, out_features=4096, bias=True)
2021-08-02 13:12:35 [1,0]<stdout>:        (fc2): Linear(in_features=4096, out_features=1024, bias=True)
2021-08-02 13:12:35 [1,0]<stdout>:        (final_layer_norm): FusedLayerNorm(torch.Size([1024]), eps=1e-05, elementwise_affine=True)
2021-08-02 13:12:35 [1,0]<stdout>:      )
2021-08-02 13:12:35 [1,0]<stdout>:    )
2021-08-02 13:12:35 [1,0]<stdout>:    (layer_norm): FusedLayerNorm(torch.Size([1024]), eps=1e-05, elementwise_affine=True)
2021-08-02 13:12:35 [1,0]<stdout>:  )
2021-08-02 13:12:35 [1,0]<stdout>:  (decoder): XLMTDecoder(
2021-08-02 13:12:35 [1,0]<stdout>:    (dropout_module): FairseqDropout()
2021-08-02 13:12:35 [1,0]<stdout>:    (embed_tokens): Embedding(250104, 1024, padding_idx=1)
2021-08-02 13:12:35 [1,0]<stdout>:    (embed_positions): LearnedPositionalEmbedding(514, 1024, padding_idx=1)
2021-08-02 13:12:35 [1,0]<stdout>:    (layers): ModuleList(
2021-08-02 13:12:35 [1,0]<stdout>:      (0): XLMTAddFFN(
2021-08-02 13:12:35 [1,0]<stdout>:        (dropout_module): FairseqDropout()
2021-08-02 13:12:35 [1,0]<stdout>:        (self_attn): MultiheadAttention(
2021-08-02 13:12:35 [1,0]<stdout>:          (dropout_module): FairseqDropout()
2021-08-02 13:12:35 [1,0]<stdout>:          (k_proj): Linear(in_features=1024, out_features=1024, bias=True)
2021-08-02 13:12:35 [1,0]<stdout>:          (v_proj): Linear(in_features=1024, out_features=1024, bias=True)
2021-08-02 13:12:35 [1,0]<stdout>:          (q_proj): Linear(in_features=1024, out_features=1024, bias=True)
2021-08-02 13:12:35 [1,0]<stdout>:          (out_proj): Linear(in_features=1024, out_features=1024, bias=True)
2021-08-02 13:12:35 [1,0]<stdout>:        )
2021-08-02 13:12:35 [1,0]<stdout>:        (activation_dropout_module): FairseqDropout()
2021-08-02 13:12:35 [1,0]<stdout>:        (self_attn_layer_norm): FusedLayerNorm(torch.Size([1024]), eps=1e-05, elementwise_affine=True)
2021-08-02 13:12:35 [1,0]<stdout>:        (encoder_attn): MultiheadAttention(
2021-08-02 13:12:35 [1,0]<stdout>:          (dropout_module): FairseqDropout()
2021-08-02 13:12:35 [1,0]<stdout>:          (k_proj): Linear(in_features=1024, out_features=1024, bias=True)
2021-08-02 13:12:35 [1,0]<stdout>:          (v_proj): Linear(in_features=1024, out_features=1024, bias=True)
2021-08-02 13:12:35 [1,0]<stdout>:          (q_proj): Linear(in_features=1024, out_features=1024, bias=True)
2021-08-02 13:12:35 [1,0]<stdout>:          (out_proj): Linear(in_features=1024, out_features=1024, bias=True)
2021-08-02 13:12:35 [1,0]<stdout>:        )
2021-08-02 13:12:35 [1,0]<stdout>:        (encoder_attn_layer_norm): FusedLayerNorm(torch.Size([1024]), eps=1e-05, elementwise_affine=True)
2021-08-02 13:12:35 [1,0]<stdout>:        (fc1): Linear(in_features=1024, out_features=4096, bias=True)
2021-08-02 13:12:35 [1,0]<stdout>:        (fc2): Linear(in_features=4096, out_features=1024, bias=True)
2021-08-02 13:12:35 [1,0]<stdout>:        (fc3): Linear(in_features=1024, out_features=4096, bias=True)
2021-08-02 13:12:35 [1,0]<stdout>:        (fc4): Linear(in_features=4096, out_features=1024, bias=True)
2021-08-02 13:12:35 [1,0]<stdout>:        (ffn_layer_norm): FusedLayerNorm(torch.Size([1024]), eps=1e-05, elementwise_affine=True)
2021-08-02 13:12:35 [1,0]<stdout>:        (final_layer_norm): FusedLayerNorm(torch.Size([1024]), eps=1e-05, elementwise_affine=True)
2021-08-02 13:12:35 [1,0]<stdout>:      )
2021-08-02 13:12:35 [1,0]<stdout>:      (1): XLMTAddFFN(
2021-08-02 13:12:35 [1,0]<stdout>:        (dropout_module): FairseqDropout()
2021-08-02 13:12:35 [1,0]<stdout>:        (self_attn): MultiheadAttention(
2021-08-02 13:12:35 [1,0]<stdout>:          (dropout_module): FairseqDropout()
2021-08-02 13:12:35 [1,0]<stdout>:          (k_proj): Linear(in_features=1024, out_features=1024, bias=True)
2021-08-02 13:12:35 [1,0]<stdout>:          (v_proj): Linear(in_features=1024, out_features=1024, bias=True)
2021-08-02 13:12:35 [1,0]<stdout>:          (q_proj): Linear(in_features=1024, out_features=1024, bias=True)
2021-08-02 13:12:35 [1,0]<stdout>:          (out_proj): Linear(in_features=1024, out_features=1024, bias=True)
2021-08-02 13:12:35 [1,0]<stdout>:        )
2021-08-02 13:12:35 [1,0]<stdout>:        (activation_dropout_module): FairseqDropout()
2021-08-02 13:12:35 [1,0]<stdout>:        (self_attn_layer_norm): FusedLayerNorm(torch.Size([1024]), eps=1e-05, elementwise_affine=True)
2021-08-02 13:12:35 [1,0]<stdout>:        (encoder_attn): MultiheadAttention(
2021-08-02 13:12:35 [1,0]<stdout>:          (dropout_module): FairseqDropout()
2021-08-02 13:12:35 [1,0]<stdout>:          (k_proj): Linear(in_features=1024, out_features=1024, bias=True)
2021-08-02 13:12:35 [1,0]<stdout>:          (v_proj): Linear(in_features=1024, out_features=1024, bias=True)
2021-08-02 13:12:35 [1,0]<stdout>:          (q_proj): Linear(in_features=1024, out_features=1024, bias=True)
2021-08-02 13:12:35 [1,0]<stdout>:          (out_proj): Linear(in_features=1024, out_features=1024, bias=True)
2021-08-02 13:12:35 [1,0]<stdout>:        )
2021-08-02 13:12:35 [1,0]<stdout>:        (encoder_attn_layer_norm): FusedLayerNorm(torch.Size([1024]), eps=1e-05, elementwise_affine=True)
2021-08-02 13:12:35 [1,0]<stdout>:        (fc1): Linear(in_features=1024, out_feature[1,0]<stdout>:s=[1,0]<stdout>:4096, bias=True)
2021-08-02 13:12:35 [1,0]<stdout>:        (fc2): Linear(in_features=4096, out_features=1024, bias=True)
2021-08-02 13:12:35 [1,0]<stdout>:        (fc3): Linear(in_features=1024, out_features=4096, bias=True)
2021-08-02 13:12:35 [1,0]<stdout>:        (fc4): Linear(in_features=4096, out_features=1024, bias=True)
2021-08-02 13:12:35 [1,0]<stdout>:        (ffn_layer_norm): FusedLayerNorm(torch.Size([1024]), eps=1e-05, elementwise_affine=True)
2021-08-02 13:12:35 [1,0]<stdout>:        (final_layer_norm): FusedLayerNorm(torch.Size([1024]), eps=1e-05, elementwise_affine=True)
2021-08-02 13:12:35 [1,0]<stdout>:      )
2021-08-02 13:12:35 [1,0]<stdout>:      (2): XLMTAddFFN(
2021-08-02 13:12:35 [1,0]<stdout>:        (dropout_module): FairseqDropout()
2021-08-02 13:12:35 [1,0]<stdout>:        (self_attn): MultiheadAttention(
2021-08-02 13:12:35 [1,0]<stdout>:          (dropout_module): FairseqDropout()
2021-08-02 13:12:35 [1,0]<stdout>:          (k_proj): Linear(in_features=1024, out_features=1024, bias=True)
2021-08-02 13:12:35 [1,0]<stdout>:          (v_proj): Linear(in_features=1024, out_features=1024, bias=True)
2021-08-02 13:12:35 [1,0]<stdout>:          (q_proj): Linear(in_features=1024, out_features=1024, bias=True)
2021-08-02 13:12:35 [1,0]<stdout>:          (out_proj): Linear(in_features=1024, out_features=1024, bias=True)
2021-08-02 13:12:35 [1,0]<stdout>:        )
2021-08-02 13:12:35 [1,0]<stdout>:        (activation_dropout_module): FairseqDropout()
2021-08-02 13:12:35 [1,0]<stdout>:        (self_attn_layer_norm): FusedLayerNorm(torch.Size([1024]), eps=1e-05, elementwise_affine=True)
2021-08-02 13:12:35 [1,0]<stdout>:        (encoder_attn): MultiheadAttention(
2021-08-02 13:12:35 [1,0]<stdout>:          (dropout_module): FairseqDropout()
2021-08-02 13:12:35 [1,0]<stdout>:          (k_proj): Linear(in_features=1024, out_features=1024, bias=True)
2021-08-02 13:12:35 [1,0]<stdout>:          (v_proj): Linear(in_features=1024, out_features=1024, bias=True)
2021-08-02 13:12:35 [1,0]<stdout>:          (q_proj): Linear(in_features=1024, out_features=1024, bias=True)
2021-08-02 13:12:35 [1,0]<stdout>:          (out_proj): Linear(in_features=1024, out_features=1024, bias=True)
2021-08-02 13:12:35 [1,0]<stdout>:        )
2021-08-02 13:12:35 [1,0]<stdout>:        (encoder_attn_layer_norm): FusedLayerNorm(torch.Size([1024]), eps=1e-05, elementwise_affine=True)
2021-08-02 13:12:35 [1,0]<stdout>:        (fc1): Linear(in_features=1024, out_features=4096, bias=True)
2021-08-02 13:12:35 [1,0]<stdout>:        (fc2): Linear(in_features=4096, out_features=1024, bias=True)
2021-08-02 13:12:35 [1,0]<stdout>:        (fc3): Linear(in_features=1024, out_features=4096, bias=True)
2021-08-02 13:12:35 [1,0]<stdout>:        (fc4): Linear(in_features=4096, out_features=1024, bias=True)
2021-08-02 13:12:35 [1,0]<stdout>:        (ffn_layer_norm): FusedLayerNorm(torch.Size([1024]), eps=1e-05, elementwise_affine=True)
2021-08-02 13:12:35 [1,0]<stdout>:        (final_layer_norm): FusedLayerNorm(torch.Size([1024]), eps=1e-05, elementwise_affine=True)
2021-08-02 13:12:35 [1,0]<stdout>:      )
2021-08-02 13:12:35 [1,0]<stdout>:      (3): XLMTAddFFN(
2021-08-02 13:12:35 [1,0]<stdout>:        (dropout_module): FairseqDropout()
2021-08-02 13:12:35 [1,0]<stdout>:        (self_attn): MultiheadAttention(
2021-08-02 13:12:35 [1,0]<stdout>:          (dropout_module): FairseqDropout()
2021-08-02 13:12:35 [1,0]<stdout>:          (k_proj): Linear(in_features=1024, out_features=1024, bias=True)
2021-08-02 13:12:35 [1,0]<stdout>:          (v_proj): Linear(in_features=1024, out_features=1024, bias=True)
2021-08-02 13:12:35 [1,0]<stdout>:          (q_proj): Linear(in_features=1024, out_features=1024, bias=True)
2021-08-02 13:12:35 [1,0]<stdout>:          (out_proj): Linear(in_features=1024, out_features=1024, bias=True)
2021-08-02 13:12:35 [1,0]<stdout>:        )
2021-08-02 13:12:35 [1,0]<stdout>:        (activation_dropout_module): FairseqDropout()
2021-08-02 13:12:35 [1,0]<stdout>:        (self_attn_layer_norm): FusedLayerNorm(torch.Size([1024]), eps=1e-05, elementwise_affine=True)
2021-08-02 13:12:35 [1,0]<stdout>:        (encoder_attn): MultiheadAttention(
2021-08-02 13:12:35 [1,0]<stdout>:          (dropout_module): FairseqDropout()
2021-08-02 13:12:35 [1,0]<stdout>:          (k_proj): Linear(in_features=1024, out_features=1024, bias=True)
2021-08-02 13:12:35 [1,0]<stdout>:          (v_proj): Linear(in_features=1024, out_features=1024, bias=True)
2021-08-02 13:12:35 [1,0]<stdout>:          (q_proj): Linear(in_features=1024, out_features=1024, bias=True)
2021-08-02 13:12:35 [1,0]<stdout>:          (out_proj): Linear(in_features=1024, out_features=1024, bias=True)
2021-08-02 13:12:35 [1,0]<stdout>:        )
2021-08-02 13:12:35 [1,0]<stdout>:        (encoder_attn_layer_norm): FusedLayerNorm(torch.Size([1024]), eps=1e-05, elementwise_affine=True)
2021-08-02 13:12:35 [1,0]<stdout>:        (fc1): Linear(in_features=1024, out_features=4096, bias=True)
2021-08-02 13:12:35 [1,0]<stdout>:        (fc2): Linear(in_features=4096, out_features=1024, bias=True)
2021-08-02 13:12:35 [1,0]<stdout>:        (fc3): Linear(in_features=1024, out_features=4096, bias=True)
2021-08-02 13:12:35 [1,0]<stdout>:        (fc4): Linear(in_features=4096, out_features=1024, bias=True)
2021-08-02 13:12:35 [1,0]<stdout>:        (ffn_layer_norm): FusedLayerNorm(torch.Size([1024]), eps=1e-05, elementwise_affine=True)
2021-08-02 13:12:35 [1,0]<stdout>:        (final_layer_norm): FusedLayerNorm(torch.Size([1024]), eps=1e-05, elementwise_affine=True)
2021-08-02 13:12:35 [1,0]<stdout>:      )
2021-08-02 13:12:35 [1,0]<stdout>:      (4): XLMTAddFFN(
2021-08-02 13:12:35 [1,0]<stdout>:        (dropout_module): FairseqDropout()
2021-08-02 13:12:35 [1,0]<stdout>:        (self_attn): MultiheadAttention(
2021-08-02 13:12:35 [1,0]<stdout>:          (dropout_module): FairseqDropout()
2021-08-02 13:12:35 [1,0]<stdout>:          (k_proj): Linear(in_features=1024, out_features=1024, bias=True)
2021-08-02 13:12:35 [1,0]<stdout>:          (v_proj): Linear(in_features=1024, out_features=1024, bias=True)
2021-08-02 13:12:35 [1,0]<stdout>:          (q_proj): Linear(in_features=1024, out_features=1024, bias=True)
2021-08-02 13:12:35 [1,0]<stdout>:          (out_proj): Linear(in_features=1024, out_features=102[1,0]<stdout>:4, bias=True)
2021-08-02 13:12:35 [1,0]<stdout>:        )
2021-08-02 13:12:35 [1,0]<stdout>:        (activation_dropout_module): FairseqDropout()
2021-08-02 13:12:35 [1,0]<stdout>:        (self_attn_layer_norm): FusedLayerNorm(torch.Size([1024]), eps=1e-05, elementwise_affine=True)
2021-08-02 13:12:35 [1,0]<stdout>:        (encoder_attn): MultiheadAttention(
2021-08-02 13:12:35 [1,0]<stdout>:          (dropout_module): FairseqDropout()
2021-08-02 13:12:35 [1,0]<stdout>:          (k_proj): Linear(in_features=1024, out_features=1024, bias=True)
2021-08-02 13:12:35 [1,0]<stdout>:          (v_proj): Linear(in_features=1024, out_features=1024, bias=True)
2021-08-02 13:12:35 [1,0]<stdout>:          (q_proj): Linear(in_features=1024, out_features=1024, bias=True)
2021-08-02 13:12:35 [1,0]<stdout>:          (out_proj): Linear(in_features=1024, out_features=1024, bias=True)
2021-08-02 13:12:35 [1,0]<stdout>:        )
2021-08-02 13:12:35 [1,0]<stdout>:        (encoder_attn_layer_norm): FusedLayerNorm(torch.Size([1024]), eps=1e-05, elementwise_affine=True)
2021-08-02 13:12:35 [1,0]<stdout>:        (fc1): Linear(in_features=1024, out_features=4096, bias=True)
2021-08-02 13:12:35 [1,0]<stdout>:        (fc2): Linear(in_features=4096, out_features=1024, bias=True)
2021-08-02 13:12:35 [1,0]<stdout>:        (fc3): Linear(in_features=1024, out_features=4096, bias=True)
2021-08-02 13:12:35 [1,0]<stdout>:        (fc4): Linear(in_features=4096, out_features=1024, bias=True)
2021-08-02 13:12:35 [1,0]<stdout>:        (ffn_layer_norm): FusedLayerNorm(torch.Size([1024]), eps=1e-05, elementwise_affine=True)
2021-08-02 13:12:35 [1,0]<stdout>:        (final_layer_norm): FusedLayerNorm(torch.Size([1024]), eps=1e-05, elementwise_affine=True)
2021-08-02 13:12:35 [1,0]<stdout>:      )
2021-08-02 13:12:35 [1,0]<stdout>:      (5): XLMTAddFFN(
2021-08-02 13:12:35 [1,0]<stdout>:        (dropout_module): FairseqDropout()
2021-08-02 13:12:35 [1,0]<stdout>:        (self_attn): MultiheadAttention(
2021-08-02 13:12:35 [1,0]<stdout>:          (dropout_module): FairseqDropout()
2021-08-02 13:12:35 [1,0]<stdout>:          (k_proj): Linear(in_features=1024, out_features=1024, bias=True)
2021-08-02 13:12:35 [1,0]<stdout>:          (v_proj): Linear(in_features=1024, out_features=1024, bias=True)
2021-08-02 13:12:35 [1,0]<stdout>:          (q_proj): Linear(in_features=1024, out_features=1024, bias=True)
2021-08-02 13:12:35 [1,0]<stdout>:          (out_proj): Linear(in_features=1024, out_features=1024, bias=True)
2021-08-02 13:12:35 [1,0]<stdout>:        )
2021-08-02 13:12:35 [1,0]<stdout>:        (activation_dropout_module): FairseqDropout()
2021-08-02 13:12:35 [1,0]<stdout>:        (self_attn_layer_norm): FusedLayerNorm(torch.Size([1024]), eps=1e-05, elementwise_affine=True)
2021-08-02 13:12:35 [1,0]<stdout>:        (encoder_attn): MultiheadAttention(
2021-08-02 13:12:35 [1,0]<stdout>:          (dropout_module): FairseqDropout()
2021-08-02 13:12:35 [1,0]<stdout>:          (k_proj): Linear(in_features=1024, out_features=1024, bias=True)
2021-08-02 13:12:35 [1,0]<stdout>:          (v_proj): Linear(in_features=1024, out_features=1024, bias=True)
2021-08-02 13:12:35 [1,0]<stdout>:          (q_proj): Linear(in_features=1024, out_features=1024, bias=True)
2021-08-02 13:12:35 [1,0]<stdout>:          (out_proj): Linear(in_features=1024, out_features=1024, bias=True)
2021-08-02 13:12:35 [1,0]<stdout>:        )
2021-08-02 13:12:35 [1,0]<stdout>:        (encoder_attn_layer_norm): FusedLayerNorm(torch.Size([1024]), eps=1e-05, elementwise_affine=True)
2021-08-02 13:12:35 [1,0]<stdout>:        (fc1): Linear(in_features=1024, out_features=4096, bias=True)
2021-08-02 13:12:35 [1,0]<stdout>:        (fc2): Linear(in_features=4096, out_features=1024, bias=True)
2021-08-02 13:12:35 [1,0]<stdout>:        (fc3): Linear(in_features=1024, out_features=4096, bias=True)
2021-08-02 13:12:35 [1,0]<stdout>:        (fc4): Linear(in_features=4096, out_features=1024, bias=True)
2021-08-02 13:12:35 [1,0]<stdout>:        (ffn_layer_norm): FusedLayerNorm(torch.Size([1024]), eps=1e-05, elementwise_affine=True)
2021-08-02 13:12:35 [1,0]<stdout>:        (final_layer_norm): FusedLayerNorm(torch.Size([1024]), eps=1e-05, elementwise_affine=True)
2021-08-02 13:12:35 [1,0]<stdout>:      )
2021-08-02 13:12:35 [1,0]<stdout>:      (6): XLMTAddFFN(
2021-08-02 13:12:35 [1,0]<stdout>:        (dropout_module): FairseqDropout()
2021-08-02 13:12:35 [1,0]<stdout>:        (self_attn): MultiheadAttention(
2021-08-02 13:12:35 [1,0]<stdout>:          (dropout_module): FairseqDropout()
2021-08-02 13:12:35 [1,0]<stdout>:          (k_proj): Linear(in_features=1024, out_features=1024, bias=True)
2021-08-02 13:12:35 [1,0]<stdout>:          (v_proj): Linear(in_features=1024, out_features=1024, bias=True)
2021-08-02 13:12:35 [1,0]<stdout>:          (q_proj): Linear(in_features=1024, out_features=1024, bias=True)
2021-08-02 13:12:35 [1,0]<stdout>:          (out_proj): Linear(in_features=1024, out_features=1024, bias=True)
2021-08-02 13:12:35 [1,0]<stdout>:        )
2021-08-02 13:12:35 [1,0]<stdout>:        (activation_dropout_module): FairseqDropout()
2021-08-02 13:12:35 [1,0]<stdout>:        (self_attn_layer_norm): FusedLayerNorm(torch.Size([1024]), eps=1e-05, elementwise_affine=True)
2021-08-02 13:12:35 [1,0]<stdout>:        (encoder_attn): MultiheadAttention(
2021-08-02 13:12:35 [1,0]<stdout>:          (dropout_module): FairseqDropout()
2021-08-02 13:12:35 [1,0]<stdout>:          (k_proj): Linear(in_features=1024, out_features=1024, bias=True)
2021-08-02 13:12:35 [1,0]<stdout>:          (v_proj): Linear(in_features=1024, out_features=1024, bias=True)
2021-08-02 13:12:35 [1,0]<stdout>:          (q_proj): Linear(in_features=1024, out_features=1024, bias=True)
2021-08-02 13:12:35 [1,0]<stdout>:          (out_proj): Linear(in_features=1024, out_features=1024, bias=True)
2021-08-02 13:12:35 [1,0]<stdout>:        )
2021-08-02 13:12:35 [1,0]<stdout>:        (encoder_attn_layer_norm): FusedLayerNorm(torch.Size([1024]), eps=1e-05, elementwise_affine=True)
2021-08-02 13:12:35 [1,0]<stdout>:        (fc1): Linear(in_features=1024, out_features=4096, bias=True)
2021-08-02 13:12:35 [1,0]<stdout>:        (fc2): Linear(in_features=4096, out_features=1024, bias=True)
2021-08-02 13:12:35 [1,0]<stdout>:        (fc3): Linear(in_features=1024, out[1,0]<stdout>:_f[1,0]<stdout>:eatures=4096, bias=True)
2021-08-02 13:12:35 [1,0]<stdout>:        (fc4): Linear(in_features=4096, out_features=1024, bias=True)
2021-08-02 13:12:35 [1,0]<stdout>:        (ffn_layer_norm): FusedLayerNorm(torch.Size([1024]), eps=1e-05, elementwise_affine=True)
2021-08-02 13:12:35 [1,0]<stdout>:        (final_layer_norm): FusedLayerNorm(torch.Size([1024]), eps=1e-05, elementwise_affine=True)
2021-08-02 13:12:35 [1,0]<stdout>:      )
2021-08-02 13:12:35 [1,0]<stdout>:      (7): XLMTAddFFN(
2021-08-02 13:12:35 [1,0]<stdout>:        (dropout_module): FairseqDropout()
2021-08-02 13:12:35 [1,0]<stdout>:        (self_attn): MultiheadAttention(
2021-08-02 13:12:35 [1,0]<stdout>:          (dropout_module): FairseqDropout()
2021-08-02 13:12:35 [1,0]<stdout>:          (k_proj): Linear(in_features=1024, out_features=1024, bias=True)
2021-08-02 13:12:35 [1,0]<stdout>:          (v_proj): Linear(in_features=1024, out_features=1024, bias=True)
2021-08-02 13:12:35 [1,0]<stdout>:          (q_proj): Linear(in_features=1024, out_features=1024, bias=True)
2021-08-02 13:12:35 [1,0]<stdout>:          (out_proj): Linear(in_features=1024, out_features=1024, bias=True)
2021-08-02 13:12:35 [1,0]<stdout>:        )
2021-08-02 13:12:35 [1,0]<stdout>:        (activation_dropout_module): FairseqDropout()
2021-08-02 13:12:35 [1,0]<stdout>:        (self_attn_layer_norm): FusedLayerNorm(torch.Size([1024]), eps=1e-05, elementwise_affine=True)
2021-08-02 13:12:35 [1,0]<stdout>:        (encoder_attn): MultiheadAttention(
2021-08-02 13:12:35 [1,0]<stdout>:          (dropout_module): FairseqDropout()
2021-08-02 13:12:35 [1,0]<stdout>:          (k_proj): Linear(in_features=1024, out_features=1024, bias=True)
2021-08-02 13:12:35 [1,0]<stdout>:          (v_proj): Linear(in_features=1024, out_features=1024, bias=True)
2021-08-02 13:12:35 [1,0]<stdout>:          (q_proj): Linear(in_features=1024, out_features=1024, bias=True)
2021-08-02 13:12:35 [1,0]<stdout>:          (out_proj): Linear(in_features=1024, out_features=1024, bias=True)
2021-08-02 13:12:35 [1,0]<stdout>:        )
2021-08-02 13:12:35 [1,0]<stdout>:        (encoder_attn_layer_norm): FusedLayerNorm(torch.Size([1024]), eps=1e-05, elementwise_affine=True)
2021-08-02 13:12:35 [1,0]<stdout>:        (fc1): Linear(in_features=1024, out_features=4096, bias=True)
2021-08-02 13:12:35 [1,0]<stdout>:        (fc2): Linear(in_features=4096, out_features=1024, bias=True)
2021-08-02 13:12:35 [1,0]<stdout>:        (fc3): Linear(in_features=1024, out_features=4096, bias=True)
2021-08-02 13:12:35 [1,0]<stdout>:        (fc4): Linear(in_features=4096, out_features=1024, bias=True)
2021-08-02 13:12:35 [1,0]<stdout>:        (ffn_layer_norm): FusedLayerNorm(torch.Size([1024]), eps=1e-05, elementwise_affine=True)
2021-08-02 13:12:35 [1,0]<stdout>:        (final_layer_norm): FusedLayerNorm(torch.Size([1024]), eps=1e-05, elementwise_affine=True)
2021-08-02 13:12:35 [1,0]<stdout>:      )
2021-08-02 13:12:35 [1,0]<stdout>:      (8): XLMTAddFFN(
2021-08-02 13:12:35 [1,0]<stdout>:        (dropout_module): FairseqDropout()
2021-08-02 13:12:35 [1,0]<stdout>:        (self_attn): MultiheadAttention(
2021-08-02 13:12:35 [1,0]<stdout>:          (dropout_module): FairseqDropout()
2021-08-02 13:12:35 [1,0]<stdout>:          (k_proj): Linear(in_features=1024, out_features=1024, bias=True)
2021-08-02 13:12:35 [1,0]<stdout>:          (v_proj): Linear(in_features=1024, out_features=1024, bias=True)
2021-08-02 13:12:35 [1,0]<stdout>:          (q_proj): Linear(in_features=1024, out_features=1024, bias=True)
2021-08-02 13:12:35 [1,0]<stdout>:          (out_proj): Linear(in_features=1024, out_features=1024, bias=True)
2021-08-02 13:12:35 [1,0]<stdout>:        )
2021-08-02 13:12:35 [1,0]<stdout>:        (activation_dropout_module): FairseqDropout()
2021-08-02 13:12:35 [1,0]<stdout>:        (self_attn_layer_norm): FusedLayerNorm(torch.Size([1024]), eps=1e-05, elementwise_affine=True)
2021-08-02 13:12:35 [1,0]<stdout>:        (encoder_attn): MultiheadAttention(
2021-08-02 13:12:35 [1,0]<stdout>:          (dropout_module): FairseqDropout()
2021-08-02 13:12:35 [1,0]<stdout>:          (k_proj): Linear(in_features=1024, out_features=1024, bias=True)
2021-08-02 13:12:35 [1,0]<stdout>:          (v_proj): Linear(in_features=1024, out_features=1024, bias=True)
2021-08-02 13:12:35 [1,0]<stdout>:          (q_proj): Linear(in_features=1024, out_features=1024, bias=True)
2021-08-02 13:12:35 [1,0]<stdout>:          (out_proj): Linear(in_features=1024, out_features=1024, bias=True)
2021-08-02 13:12:35 [1,0]<stdout>:        )
2021-08-02 13:12:35 [1,0]<stdout>:        (encoder_attn_layer_norm): FusedLayerNorm(torch.Size([1024]), eps=1e-05, elementwise_affine=True)
2021-08-02 13:12:35 [1,0]<stdout>:        (fc1): Linear(in_features=1024, out_features=4096, bias=True)
2021-08-02 13:12:35 [1,0]<stdout>:        (fc2): Linear(in_features=4096, out_features=1024, bias=True)
2021-08-02 13:12:35 [1,0]<stdout>:        (fc3): Linear(in_features=1024, out_features=4096, bias=True)
2021-08-02 13:12:35 [1,0]<stdout>:        (fc4): Linear(in_features=4096, out_features=1024, bias=True)
2021-08-02 13:12:35 [1,0]<stdout>:        (ffn_layer_norm): FusedLayerNorm(torch.Size([1024]), eps=1e-05, elementwise_affine=True)
2021-08-02 13:12:35 [1,0]<stdout>:        (final_layer_norm): FusedLayerNorm(torch.Size([1024]), eps=1e-05, elementwise_affine=True)
2021-08-02 13:12:35 [1,0]<stdout>:      )
2021-08-02 13:12:35 [1,0]<stdout>:      (9): XLMTAddFFN(
2021-08-02 13:12:35 [1,0]<stdout>:        (dropout_module): FairseqDropout()
2021-08-02 13:12:35 [1,0]<stdout>:        (self_attn): MultiheadAttention(
2021-08-02 13:12:35 [1,0]<stdout>:          (dropout_module): FairseqDropout()
2021-08-02 13:12:35 [1,0]<stdout>:          (k_proj): Linear(in_features=1024, out_features=1024, bias=True)
2021-08-02 13:12:35 [1,0]<stdout>:          (v_proj): Linear(in_features=1024, out_features=1024, bias=True)
2021-08-02 13:12:35 [1,0]<stdout>:          (q_proj): Linear(in_features=1024, out_features=1024, bias=True)
2021-08-02 13:12:35 [1,0]<stdout>:          (out_proj): Linear(in_features=1024, out_features=1024, bias=True)
2021-08-02 13:12:35 [1,0]<stdout>:        )
2021-08-02 13:12:35 [1,0]<stdout>:        (activation_dropout_module): FairseqDropout()
2021-08-02 13:12:35 [1,0]<stdout>:        (self_attn_layer_norm): FusedLayerNorm(torch.S[1,0]<stdout>:ize([1024]), eps=1e-05, elementwise_affine=True)
2021-08-02 13:12:35 [1,0]<stdout>:        (encoder_attn): MultiheadAttention(
2021-08-02 13:12:35 [1,0]<stdout>:          (dropout_module): FairseqDropout()
2021-08-02 13:12:35 [1,0]<stdout>:          (k_proj): Linear(in_features=1024, out_features=1024, bias=True)
2021-08-02 13:12:35 [1,0]<stdout>:          (v_proj): Linear(in_features=1024, out_features=1024, bias=True)
2021-08-02 13:12:35 [1,0]<stdout>:          (q_proj): Linear(in_features=1024, out_features=1024, bias=True)
2021-08-02 13:12:35 [1,0]<stdout>:          (out_proj): Linear(in_features=1024, out_features=1024, bias=True)
2021-08-02 13:12:35 [1,0]<stdout>:        )
2021-08-02 13:12:35 [1,0]<stdout>:        (encoder_attn_layer_norm): FusedLayerNorm(torch.Size([1024]), eps=1e-05, elementwise_affine=True)
2021-08-02 13:12:35 [1,0]<stdout>:        (fc1): Linear(in_features=1024, out_features=4096, bias=True)
2021-08-02 13:12:35 [1,0]<stdout>:        (fc2): Linear(in_features=4096, out_features=1024, bias=True)
2021-08-02 13:12:35 [1,0]<stdout>:        (fc3): Linear(in_features=1024, out_features=4096, bias=True)
2021-08-02 13:12:35 [1,0]<stdout>:        (fc4): Linear(in_features=4096, out_features=1024, bias=True)
2021-08-02 13:12:35 [1,0]<stdout>:        (ffn_layer_norm): FusedLayerNorm(torch.Size([1024]), eps=1e-05, elementwise_affine=True)
2021-08-02 13:12:35 [1,0]<stdout>:        (final_layer_norm): FusedLayerNorm(torch.Size([1024]), eps=1e-05, elementwise_affine=True)
2021-08-02 13:12:35 [1,0]<stdout>:      )
2021-08-02 13:12:35 [1,0]<stdout>:      (10): XLMTAddFFN(
2021-08-02 13:12:35 [1,0]<stdout>:        (dropout_module): FairseqDropout()
2021-08-02 13:12:35 [1,0]<stdout>:        (self_attn): MultiheadAttention(
2021-08-02 13:12:35 [1,0]<stdout>:          (dropout_module): FairseqDropout()
2021-08-02 13:12:35 [1,0]<stdout>:          (k_proj): Linear(in_features=1024, out_features=1024, bias=True)
2021-08-02 13:12:35 [1,0]<stdout>:          (v_proj): Linear(in_features=1024, out_features=1024, bias=True)
2021-08-02 13:12:35 [1,0]<stdout>:          (q_proj): Linear(in_features=1024, out_features=1024, bias=True)
2021-08-02 13:12:35 [1,0]<stdout>:          (out_proj): Linear(in_features=1024, out_features=1024, bias=True)
2021-08-02 13:12:35 [1,0]<stdout>:        )
2021-08-02 13:12:35 [1,0]<stdout>:        (activation_dropout_module): FairseqDropout()
2021-08-02 13:12:35 [1,0]<stdout>:        (self_attn_layer_norm): FusedLayerNorm(torch.Size([1024]), eps=1e-05, elementwise_affine=True)
2021-08-02 13:12:35 [1,0]<stdout>:        (encoder_attn): MultiheadAttention(
2021-08-02 13:12:35 [1,0]<stdout>:          (dropout_module): FairseqDropout()
2021-08-02 13:12:35 [1,0]<stdout>:          (k_proj): Linear(in_features=1024, out_features=1024, bias=True)
2021-08-02 13:12:35 [1,0]<stdout>:          (v_proj): Linear(in_features=1024, out_features=1024, bias=True)
2021-08-02 13:12:35 [1,0]<stdout>:          (q_proj): Linear(in_features=1024, out_features=1024, bias=True)
2021-08-02 13:12:35 [1,0]<stdout>:          (out_proj): Linear(in_features=1024, out_features=1024, bias=True)
2021-08-02 13:12:35 [1,0]<stdout>:        )
2021-08-02 13:12:35 [1,0]<stdout>:        (encoder_attn_layer_norm): FusedLayerNorm(torch.Size([1024]), eps=1e-05, elementwise_affine=True)
2021-08-02 13:12:35 [1,0]<stdout>:        (fc1): Linear(in_features=1024, out_features=4096, bias=True)
2021-08-02 13:12:35 [1,0]<stdout>:        (fc2): Linear(in_features=4096, out_features=1024, bias=True)
2021-08-02 13:12:35 [1,0]<stdout>:        (fc3): Linear(in_features=1024, out_features=4096, bias=True)
2021-08-02 13:12:35 [1,0]<stdout>:        (fc4): Linear(in_features=4096, out_features=1024, bias=True)
2021-08-02 13:12:35 [1,0]<stdout>:        (ffn_layer_norm): FusedLayerNorm(torch.Size([1024]), eps=1e-05, elementwise_affine=True)
2021-08-02 13:12:35 [1,0]<stdout>:        (final_layer_norm): FusedLayerNorm(torch.Size([1024]), eps=1e-05, elementwise_affine=True)
2021-08-02 13:12:35 [1,0]<stdout>:      )
2021-08-02 13:12:35 [1,0]<stdout>:      (11): XLMTAddFFN(
2021-08-02 13:12:35 [1,0]<stdout>:        (dropout_module): FairseqDropout()
2021-08-02 13:12:35 [1,0]<stdout>:        (self_attn): MultiheadAttention(
2021-08-02 13:12:35 [1,0]<stdout>:          (dropout_module): FairseqDropout()
2021-08-02 13:12:35 [1,0]<stdout>:          (k_proj): Linear(in_features=1024, out_features=1024, bias=True)
2021-08-02 13:12:35 [1,0]<stdout>:          (v_proj): Linear(in_features=1024, out_features=1024, bias=True)
2021-08-02 13:12:35 [1,0]<stdout>:          (q_proj): Linear(in_features=1024, out_features=1024, bias=True)
2021-08-02 13:12:35 [1,0]<stdout>:          (out_proj): Linear(in_features=1024, out_features=1024, bias=True)
2021-08-02 13:12:35 [1,0]<stdout>:        )
2021-08-02 13:12:35 [1,0]<stdout>:        (activation_dropout_module): FairseqDropout()
2021-08-02 13:12:35 [1,0]<stdout>:        (self_attn_layer_norm): FusedLayerNorm(torch.Size([1024]), eps=1e-05, elementwise_affine=True)
2021-08-02 13:12:35 [1,0]<stdout>:        (encoder_attn): MultiheadAttention(
2021-08-02 13:12:35 [1,0]<stdout>:          (dropout_module): FairseqDropout()
2021-08-02 13:12:35 [1,0]<stdout>:          (k_proj): Linear(in_features=1024, out_features=1024, bias=True)
2021-08-02 13:12:35 [1,0]<stdout>:          (v_proj): Linear(in_features=1024, out_features=1024, bias=True)
2021-08-02 13:12:35 [1,0]<stdout>:          (q_proj): Linear(in_features=1024, out_features=1024, bias=True)
2021-08-02 13:12:35 [1,0]<stdout>:          (out_proj): Linear(in_features=1024, out_features=1024, bias=True)
2021-08-02 13:12:35 [1,0]<stdout>:        )
2021-08-02 13:12:35 [1,0]<stdout>:        (encoder_attn_layer_norm): FusedLayerNorm(torch.Size([1024]), eps=1e-05, elementwise_affine=True)
2021-08-02 13:12:35 [1,0]<stdout>:        (fc1): Linear(in_features=1024, out_features=4096, bias=True)
2021-08-02 13:12:35 [1,0]<stdout>:        (fc2): Linear(in_features=4096, out_features=1024, bias=True)
2021-08-02 13:12:35 [1,0]<stdout>:        (fc3): Linear(in_features=1024, out_features=4096, bias=True)
2021-08-02 13:12:35 [1,0]<stdout>:        (fc4): Linear(in_features=4096, out_features=1024, bias=True)
2021-08-02 13:12:35 [1,0]<stdout>:        (ffn_layer_norm): FusedLa[1,0]<stdout>:ye[1,0]<stdout>:rNorm(torch.Size([1024]), eps=1e-05, elementwise_affine=True)
2021-08-02 13:12:35 [1,0]<stdout>:        (final_layer_norm): FusedLayerNorm(torch.Size([1024]), eps=1e-05, elementwise_affine=True)
2021-08-02 13:12:35 [1,0]<stdout>:      )
2021-08-02 13:12:35 [1,0]<stdout>:    )
2021-08-02 13:12:35 [1,0]<stdout>:    (layer_norm): FusedLayerNorm(torch.Size([1024]), eps=1e-05, elementwise_affine=True)
2021-08-02 13:12:35 [1,0]<stdout>:    (output_projection): Linear(in_features=1024, out_features=250104, bias=False)
2021-08-02 13:12:35 [1,0]<stdout>:  )
2021-08-02 13:12:35 [1,0]<stdout>:)
2021-08-02 13:12:35 [1,0]<stdout>:2021-08-02 21:12:32 | INFO | fairseq_cli.train | task: TranslationMultiSimpleEpochTask
2021-08-02 13:12:35 [1,0]<stdout>:2021-08-02 21:12:32 | INFO | fairseq_cli.train | model: XLMTDecoderVariantModel
2021-08-02 13:12:35 [1,0]<stdout>:2021-08-02 21:12:32 | INFO | fairseq_cli.train | criterion: LabelSmoothedCrossEntropyCriterion)
…
